models/poke_10k.pt (torch_old, 73306 bytes, 6 tensors)

fc1.weight f4 [128, 8]
0	0xbe16f89e	-0.14743277
1	0x3f317fb1	0.69335467
2	0x3c06778d	0.008207214
3	0x3e883fcf	0.26611182
4	0xbeff1e7f	-0.49827954
5	0xbe42e5bf	-0.19032954
6	0x3e8c5224	0.27406418
7	0x3ef4965c	0.47770965
8	0xbd840bf2	-0.06447591
9	0x3ef451ee	0.47718757
10	0x3b794283	0.003803403
11	0xbd549876	-0.05190321
12	0x3f235cae	0.6381329
13	0xbe0af5dc	-0.1357035
14	0xbd98ba5f	-0.074574225
15	0x3e5a10c5	0.2129546
16	0x3dc1ba9c	0.09459421
17	0x3c986b20	0.018605769
18	0x3ced45c7	0.028963936
19	0xbe4a8c6d	-0.1978013
20	0xbcf270a9	-0.029594736
21	0xbeaed27a	-0.34144956
22	0xbf0c6e07	-0.5485539
23	0xbf12fca2	-0.5741674
24	0xbeb08513	-0.34476528
25	0xbf170c3c	-0.59003043
26	0xbe069b83	-0.1314526
27	0xbed31098	-0.41223598
28	0x3f445b82	0.7670213
29	0x3e05df44	0.1307345
30	0xbd8c66c9	-0.06855542
31	0x3e25a6c6	0.161769
32	0x3e9ccff2	0.306274
33	0x3f8ca563	1.0987972
34	0x3c6504e6	0.013978219
35	0xbc30a924	-0.010782514
36	0xbf32fc4d	-0.6991623
37	0xbdac2d4a	-0.08407076
38	0x3e45afb7	0.19305311
39	0x3d6607ea	0.05615989
40	0x3f1e27d8	0.61779547
41	0xbd845cb7	-0.064629965
42	0xbb39bb13	-0.0028340265
43	0xbdff184b	-0.124558054
44	0x3d7f8857	0.062385883
45	0xbe40430c	-0.18775576
46	0x3cf3b1bf	0.029747842
47	0x3bd210fb	0.0064107156
48	0xbe9c0c3d	-0.30478087
49	0xbeb6ce6e	-0.35704368
50	0xbdf368ad	-0.118852
51	0x3e935153	0.28772983
52	0x3ed1a483	0.40945825
53	0xbe0806a4	-0.13283783
54	0xbd671727	-0.056418564
55	0x3e61a649	0.22036089
56	0xbe8b3eb7	-0.27196285
57	0x3ef58292	0.4795118
58	0x3d2e0ca9	0.042492542
59	0x3ea850b2	0.32874066
60	0xbf549baf	-0.83050054
61	0xbeed09b1	-0.46296456
62	0x3dc3614b	0.095400415
63	0xbb0f3c84	-0.0021856138
64	0x3e1a1fce	0.15051195
65	0x3fbdd414	1.4830346
66	0xb963a156	-0.0002170851
67	0xbe6961ec	-0.2279126
68	0xbfb2b679	-1.3961936
69	0x3e44ba33	0.19211654
70	0x3e31f15e	0.1737723
71	0xbdb57950	-0.08861029
72	0xbe9adc0b	-0.30246004
73	0xbef2a3a4	-0.47390473
74	0xbe414458	-0.18873727
75	0xbded324f	-0.11581861
76	0xbedd5688	-0.4323008
77	0x3e582dad	0.21111174
78	0xbea5ca7b	-0.32381043
79	0xbd9f6330	-0.077825904
80	0xbeecd8aa	-0.46259052
81	0x3f0e9a9d	0.5570467
82	0x3ca540ef	0.020172564
83	0xbccbec63	-0.024892991
84	0x3f3fd6cb	0.74937123
85	0xbda11c93	-0.07866778
86	0xbe924035	-0.2856461
87	0x3e59957c	0.2124843
88	0xbe81956f	-0.2530932
89	0xbf358f8e	-0.7092217
90	0xbe225420	-0.15852404
91	0x3ebcb0ea	0.36853725
92	0x3f3fe25b	0.74954766
93	0xbd725403	-0.05916215
94	0xbc934d0c	-0.017981075
95	0x3e010bb3	0.12602119
96	0xbeaba604	-0.33525097
97	0xbf696772	-0.9117347
98	0x39cf5a66	0.0003954947
99	0xbea0998c	-0.31367147
100	0x3f33045e	0.6992854
101	0x3e4581a0	0.1928773
102	0xbdc3bafc	-0.09557149
103	0x3bfd0b3e	0.0077222874
104	0xbee59771	-0.44842103
105	0x3f85dc26	1.0457809
106	0x3ad13a23	0.0015962761
107	0x3eca00da	0.39453775
108	0xbf83195f	-1.0242118
109	0xbe1576fd	-0.14596172
110	0x3d73ffca	0.05957011
111	0x3ccc61fa	0.024949063
112	0x3e5da491	0.21644808
113	0x3e4b6f0a	0.19866577
114	0x3da50e64	0.080593854
115	0xbe3e606a	-0.18591467
116	0xbe71c2ce	-0.23609468
117	0xbe8c89a2	-0.27448756
118	0xbcaebbc9	-0.021329777
119	0xbd9b53f1	-0.0758437
120	0x3ee58465	0.44827572
121	0xbf27ca22	-0.65542805
122	0xbdfb52aa	-0.12271626
123	0xbe74fbed	-0.23924227
124	0x3f09b4d4	0.53791547
125	0xbd2dd9cf	-0.042444047
126	0xbe3174c6	-0.17329702
127	0x3db2779a	0.087142184
128	0xbdf7336f	-0.12070357
129	0x3e186a8e	0.14884397
130	0x3b492f90	0.0030698515
131	0xbef48ebe	-0.47765154
132	0xbe9d469b	-0.3071793
133	0xba4c39dc	-0.0007790604
134	0xbe45a62b	-0.1930167
135	0xbf093e1c	-0.53610396
136	0x3e4a0754	0.19729358
137	0x3e650564	0.22365338
138	0xbe0312ce	-0.12800142
139	0xbeacdf41	-0.3376408
140	0xbe22d457	-0.15901314
141	0x3e347b77	0.17625223
142	0x3e4f0fad	0.20220824
143	0xbe5b5d2f	-0.21422265
144	0x3e02934a	0.12751499
145	0x3f324f93	0.6965267
146	0x3ebb3a3f	0.36567876
147	0x3b4975ed	0.0030740455
148	0xbedcdc38	-0.43136764
149	0xbe69ccf8	-0.22832096
150	0xbe12edc4	-0.14348513
151	0xbe0d3c88	-0.13792622
152	0xbcbb195e	-0.022839244
153	0xbfbc9549	-1.4733058
154	0x388a436c	6.592911e-05
155	0xbe69719b	-0.22797243
156	0x3fb4f61c	1.4137607
157	0x3de2c452	0.110726014
158	0x3d146206	0.036226295
159	0x3db21c3d	0.08696792
160	0xbeaaef35	-0.33385625
161	0xbe90c213	-0.28273067
162	0xbd182e10	-0.037153304
163	0xbd163cf0	-0.03667921
164	0xbea44ca9	-0.32089737
165	0x3e6063a6	0.21913013
166	0xbe86f6f4	-0.26360285
167	0xbc22adc0	-0.009929121
168	0xbf0c7ddb	-0.5487954
169	0xbf0ce2a2	-0.55033314
170	0xbb285631	-0.002568614
171	0x3f20a354	0.6274922
172	0x3f100239	0.5625339
173	0xbe941267	-0.2892029
174	0x3da936ac	0.08262381
175	0xbdca0041	-0.0986333
176	0xbd8e7021	-0.06954981
177	0x3f3b1dea	0.7309252
178	0x3b44afd5	0.003001203
179	0x3ea5d859	0.32391623
180	0xbf49e310	-0.78862095
181	0xbe47d179	-0.19513501
182	0x3e53c2a6	0.20679721
183	0x3eacc2b6	0.33742303
184	0xbd5ff501	-0.054677013
185	0xbfa0d66c	-1.2565436
186	0xbb0b1d9c	-0.0021227365
187	0x3e2bb449	0.16767992
188	0x3f9e9852	1.2390234
189	0x3e4ce48e	0.20009062
190	0x3e49020a	0.19629684
191	0x3dd0fb04	0.102041274
192	0xbe74f7b2	-0.23922613
193	0x3debde53	0.11517014
194	0x3dc8dc0a	0.09807594
195	0xbf192be1	-0.5983258
196	0xbf1014ef	-0.5628194
197	0x3ec50ac5	0.3848478
198	0xbe34fe98	-0.17675245
199	0xbe66bc63	-0.22532801
200	0xbf03d3ab	-0.51494855
201	0xbf27313f	-0.6530952
202	0xbb14a8f3	-0.002268371
203	0x3f2542b1	0.6455489
204	0x3f171016	0.5900892
205	0xbdf58373	-0.119879626
206	0x3dea5011	0.11441053
207	0xbe137691	-0.14400698
208	0xbe9420e6	-0.2893135
209	0x3f778349	0.966847
210	0x3e6feff3	0.23431377
211	0xbded60df	-0.11590742
212	0xbf647f2f	-0.89256567
213	0xbd4f06f8	-0.050543755
214	0xbd0fd95d	-0.035119403
215	0xbc6facee	-0.014628632
216	0x3e3038ba	0.1720914
217	0xbf23c280	-0.6396866
218	0xbd8684a2	-0.065682665
219	0xbe02736f	-0.12739347
220	0x3f07123b	0.5276219
221	0xbda52e19	-0.08065433
222	0xbd8bcd55	-0.06826273
223	0x3db64f78	0.08901876
224	0xbba7d38d	-0.0051216544
225	0xbba7f5e6	-0.005125749
226	0x3dc13abb	0.0943503
227	0x3e4d6181	0.20056726
228	0xbf1ca7cf	-0.61193556
229	0x3e6f7aa1	0.23386623
230	0xbccc1d12	-0.024916206
231	0xbe6d4277	-0.23169886
232	0xbe1a210e	-0.15051672
233	0x3f837cb1	1.0272428
234	0x3be13787	0.0068730745
235	0x3e841e75	0.25804487
236	0xbf7da4fd	-0.9907988
237	0xbc171951	-0.0092223445
238	0x3e11c5b4	0.14235574
239	0x3dc1c44d	0.094612695
240	0xbebaca06	-0.36482257
241	0x3e3abd41	0.18236257
242	0x3e29417d	0.16528888
243	0x3d58ec8d	0.052959967
244	0xbf041521	-0.5159474
245	0x3e2c3ed2	0.16820839
246	0xbe815c84	-0.25265896
247	0xbe781d26	-0.24229869
248	0xbd99fa4f	-0.07518446
249	0xbebe7137	-0.3719575
250	0xbe3e4653	-0.18581514
251	0xbdd32357	-0.10309475
252	0x3f7cefc0	0.9880333
253	0x3e1c6739	0.15273751
254	0xbd3e68ea	-0.046486773
255	0x3e9d0633	0.30668792

fc1.bias f4 [128]
0	0xbe815e65	-0.2526733
1	0x3e367119	0.17816581
2	0xbd12323e	-0.035692446
3	0x3e2b353b	0.16719525
4	0xbe534a91	-0.20633914
5	0xbe545e49	-0.20739092
6	0xbde1d864	-0.11027601
7	0x3e1d234c	0.15345496
8	0xbdfab7e0	-0.122421026
9	0xbe2bfe56	-0.1679624
10	0x3e8c6dfd	0.27427664
11	0xbe41204d	-0.18859978
12	0x3ea0830c	0.3134998
13	0x3d28e024	0.041229382
14	0x3e73f642	0.23824409
15	0xbe0fb08c	-0.14032191
16	0x3dbf8c69	0.09352953
17	0xbe2c356f	-0.16817258
18	0xbddbb5b6	-0.10728018
19	0x3d8c05bd	0.06837032
20	0xbe794000	-0.2434082
21	0x3ca39691	0.019969257
22	0xbe5df330	-0.216748
23	0xbe7c5b79	-0.24644269
24	0x3e531385	0.20612915
25	0xbe072728	-0.1319853
26	0xbe8c48ca	-0.27399284
27	0x3dccb63a	0.099956945
28	0xbe64a814	-0.22329742
29	0xbe152558	-0.14565027
30	0xbe536a95	-0.20646127
31	0xbea0f16d	-0.31434193
32	0x3d92c8aa	0.0716718
33	0x3d8a7605	0.06760792
34	0xbe0250e1	-0.12726165
35	0xbd01dc0a	-0.031703986
36	0xbdf1a7e8	-0.11799604
37	0xbd8f4531	-0.06995619
38	0xbe04cfc6	-0.12969884
39	0xbd48ee11	-0.049055163
40	0x3ddea027	0.108703904
41	0x3d589b0b	0.052882235
42	0xbd71b3ac	-0.05900924
43	0xbde1315b	-0.10995742
44	0xbea24db1	-0.316999
45	0x3e2c9307	0.16852961
46	0xbe994fdb	-0.29943737
47	0x3d973769	0.073836155
48	0xbe9b0678	-0.30278373
49	0x3caf2158	0.021378204
50	0x3cb92ea6	0.022605252
51	0xbea1520c	-0.3150791
52	0xbc0e1e44	-0.008674208
53	0xbd8ae3ae	-0.06781708
54	0x3ca35046	0.019935738
55	0xbe654305	-0.22388847
56	0x3e7dd0d1	0.24786688
57	0x3d03b5a0	0.032155633
58	0x3e878e49	0.26475742
59	0xbc91136b	-0.017709455
60	0xbd2af17d	-0.041734207
61	0x3e3680e8	0.17822611
62	0x3eef4f48	0.46740174
63	0xbeac395d	-0.33637515
64	0x3d5f7521	0.054555062
65	0xbe36a4aa	-0.17836252
66	0x3e1a56f6	0.15072235
67	0xbc9bd4f6	-0.019022446
68	0xbe8fa559	-0.28055838
69	0xbd9f9d85	-0.07793716
70	0xbdd2e4d0	-0.10297549
71	0x3e54931c	0.20759243
72	0xbefaf79f	-0.49017045
73	0xbdf713fb	-0.12064358
74	0xbde00644	-0.10938695
75	0x3da3e8f2	0.08003415
76	0xbe10ccae	-0.14140579
77	0xbeb32fe8	-0.34997487
78	0x3c396333	0.011315155
79	0xbd9cfbde	-0.07665227
80	0xbe034638	-0.12819755
81	0x3ce0c42e	0.027437296
82	0xbc3ed5ed	-0.011647684
83	0xbe91dc9c	-0.28488624
84	0x3e808798	0.2510345
85	0xbd3767ef	-0.044776853
86	0xbc9fbb99	-0.019498633
87	0x3e2fae29	0.1715628
88	0xbe01487f	-0.12625311
89	0xbc9f30bd	-0.01943242
90	0x3e503b4c	0.2033512
91	0x3d9e0f38	0.077177465
92	0x3d03fe99	0.032225225
93	0x3d9a72f8	0.0754146
94	0xbdfb1a09	-0.12260825
95	0x3e6dfdce	0.2324135
96	0x3def5acd	0.11687241
97	0x3e732b7a	0.23747054
98	0x3d4aabfa	0.049480416
99	0xbe092167	-0.13391648
100	0xbeaa06bc	-0.33208263
101	0xbec0e75d	-0.37676516
102	0x3df36b97	0.118857555
103	0xbe15a031	-0.1461189
104	0x3ee18f40	0.44054604
105	0x3e67da4c	0.22641867
106	0xbece7de6	-0.40330428
107	0x3c258d26	0.010104453
108	0xbcadfd5b	-0.021238973
109	0xbe432968	-0.19058764
110	0x3dc8f7f8	0.09812921
111	0xbea85806	-0.32879657
112	0xbc932dd6	-0.017966192
113	0x3e32f331	0.17475583
114	0xbdb9a882	-0.090653434
115	0xbe4ae687	-0.19814502
116	0x3ee99133	0.4561859
117	0xbd8a48e2	-0.067521825
118	0xbe9069e8	-0.282058
119	0xbdda59b4	-0.10661641
120	0x3dc3e9bd	0.095660664
121	0xbde94288	-0.11389643
122	0xbe8e716e	-0.27820915
123	0xbe135698	-0.14388502
124	0xbe25283f	-0.16128634
125	0xbe9ab6ba	-0.30217534
126	0x3e57c04b	0.21069448
127	0xbe8a3e7a	-0.2700079

fc2.weight f4 [128, 128]
0	0xbd1c11da	-0.038102962
1	0xbd101d50	-0.035184205
2	0xbd1ea8df	-0.038735267
3	0x3d795143	0.060868513
4	0xbdbd1188	-0.092318594
5	0xbd50e5e3	-0.051000487
6	0x3d58ba9e	0.052912347
7	0xbc8a2cce	-0.016867068
8	0xbc946918	-0.018116519
9	0xbd190e22	-0.037366994
10	0xbdf0db65	-0.11760596
11	0xbde4ee72	-0.11178292
12	0xbd97fc5a	-0.07421179
13	0xbdd29c9e	-0.102837786
14	0xbd03ee46	-0.032209657
15	0xbd954f14	-0.072904736
16	0xbd1ce9ba	-0.038308837
17	0xbcca1ae5	-0.024671027
18	0xbd96b9e9	-0.07359678
19	0xbd963287	-0.07333856
20	0x3d96921f	0.07352089
21	0x3c4d10f7	0.012516252
22	0xbdceb516	-0.10093133
23	0xbab6bda0	-0.0013942011
24	0xbd42d78d	-0.047568846
25	0xbda02242	-0.07819034
26	0x3d57f4ff	0.05272388
27	0xbd483282	-0.048876293
28	0x3d63f7cc	0.05565624
29	0xbd853303	-0.0650387
30	0xbddf1bf1	-0.10894001
31	0xbcc96ffe	-0.024589535
32	0x3c181a9a	0.009283686
33	0x3d0f9e8a	0.035063304
34	0x3d1c0b62	0.038096793
35	0xbba202af	-0.0049441676
36	0xbd9af24f	-0.07565748
37	0x3cdbfdd1	0.026854428
38	0xbd2af16a	-0.041734137
39	0xbdcdbc1b	-0.10045644
40	0x3bec02dd	0.00720249
41	0xbcca57e2	-0.024700109
42	0xbd59c8a9	-0.05316988
43	0xbd682955	-0.056680042
44	0xbdcc8b1d	-0.09987471
45	0x3cd2b1d5	0.025719563
46	0x3b0f0bb2	0.002182704
47	0xbdbfb70f	-0.093610875
48	0x3d1593cd	0.036517907
49	0x3ce7701e	0.028251704
50	0x3c8072bb	0.015679708
51	0xbd29ee2e	-0.04148691
52	0x39152118	0.00014222076
53	0x3d37eacf	0.044901665
54	0xbc62cc70	-0.013842687
55	0x3d38323f	0.044969793
56	0xbd851159	-0.064974494
57	0xbd738dba	-0.059461333
58	0x3c7a9f3b	0.015296753
59	0xbc7c7911	-0.015409724
60	0xbd7a3a97	-0.061091032
61	0x3d739e0a	0.05947689
62	0xbd1bbc8f	-0.03802162
63	0x3bf8eeb3	0.0075968145
64	0xbde8a213	-0.11359038
65	0xbc86a41b	-0.016435673
66	0xbdadc1af	-0.08484208
67	0xbdc9b2f3	-0.09848585
68	0xbda1cd37	-0.0790047
69	0x3d124cb1	0.03571767
70	0xbbf31780	-0.007418573
71	0x3d62ecdf	0.05540168
72	0x3abd8f47	0.0014462256
73	0xbbb334c4	-0.0054689366
74	0xbdb7bc69	-0.08971483
75	0xbd5fcf27	-0.054640915
76	0xbc24d151	-0.010059671
77	0xbccb1ad4	-0.024793066
78	0x3d81e452	0.06342377
79	0xbddfa3e0	-0.109199286
80	0x3cbbc1e8	0.02291961
81	0x3b6891d8	0.003548732
82	0xbd92817e	-0.07153605
83	0xbdae7c58	-0.085198104
84	0x3d7ed7cc	0.06221752
85	0xbbfb9ee1	-0.007678852
86	0x3ca36184	0.01994396
87	0x3c52d2cf	0.0128676435
88	0xbd7b97a7	-0.061423924
89	0xbcada018	-0.021194503
90	0x3d1afec1	0.03784061
91	0xbd82baef	-0.06383311
92	0x3d1c53be	0.0381658
93	0xbd907e5d	-0.07055352
94	0xbc0635c9	-0.008191534
95	0x3d05168f	0.032492217
96	0xbbfc83a0	-0.0077061206
97	0x3d26a51b	0.0406848
98	0xbd1d213b	-0.03836177
99	0x3cf547a9	0.029941397
100	0xbd1a15f4	-0.037618592
101	0x3d7f0249	0.06225804
102	0xbc9be0ed	-0.019028151
103	0xbd90f465	-0.070778646
104	0xbd1ab5a4	-0.037770882
105	0x3d897a12	0.06712736
106	0xbce180fb	-0.027527323
107	0xbd065604	-0.032796875
108	0x3b322095	0.0027180065
109	0xbd9cea6f	-0.07661902
110	0xbd0e20ca	-0.03469924
111	0x3cf913ec	0.030405007
112	0x3cfe2133	0.03102169
113	0xbd00b80a	-0.031425513
114	0xbdbebbe8	-0.09313184
115	0xbc91877b	-0.017764797
116	0xbd6d004a	-0.057861604
117	0x3d81c038	0.06335491
118	0xbe001498	-0.12507856
119	0xbdc39789	-0.095503874
120	0xbc8d2fd9	-0.01723473
121	0x3d671cff	0.056424137
122	0x3d02f903	0.031975757
123	0x3d2a0b17	0.041514482
124	0x3cc6b7c1	0.024257543
125	0xbd69e5e8	-0.05710402
126	0xbd1d30cd	-0.03837662
127	0xbde48072	-0.111573115
128	0xbcb2ab86	-0.021810304
129	0xbcff4142	-0.031159047
130	0xbd13dc69	-0.03609887
131	0xbf57225e	-0.84036815
132	0xbdbcd404	-0.09220126
133	0xbda5ee2a	-0.08102067
134	0xbf670d11	-0.9025431
135	0xbdc403b6	-0.0957102
136	0x3f0197b4	0.50622106
137	0xbf4f3d61	-0.8095303
138	0xbc2c5345	-0.0105179
139	0xbf36a459	-0.71344525
140	0xbd72025d	-0.059084285
141	0x3d1dd0a8	0.03852907
142	0xbd7f4d15	-0.06232937
143	0xbde42246	-0.1113935
144	0xbea3ed1d	-0.3201684
145	0x3dd20853	0.10255494
146	0x3f379ced	0.71723825
147	0x3d8c1f3c	0.06841895
148	0xbd00ce96	-0.031447016
149	0x3dce15f6	0.100627825
150	0xbd210b5e	-0.03931748
151	0xbe6f1c43	-0.23350625
152	0xbe0412fc	-0.12897867
153	0x3d231024	0.039810315
154	0x3d10ec06	0.03538134
155	0x3d79cbbe	0.06098532
156	0xbe14ce8d	-0.14531918
157	0x3aab9ed9	0.0013093605
158	0xbc21c96d	-0.009874684
159	0xbe77873a	-0.24172679
160	0xbc8cc3e7	-0.017183257
161	0x3f2534cf	0.64533705
162	0xbd791872	-0.06081433
163	0xbe12c15b	-0.14331572
164	0x3d9ebbd5	0.0775067
165	0xbdf943e0	-0.12171149
166	0x3e82c186	0.25538272
167	0xbe3fdaeb	-0.18735854
168	0x3c0a5229	0.00844244
169	0x3b0be31c	0.0021345085
170	0x3e5b3a5d	0.21408983
171	0x3ecbe6b3	0.39824447
172	0xbde422e1	-0.11139465
173	0x3d953e2a	0.072872475
174	0xbf27dac4	-0.65568185
175	0x3f3b4b66	0.73161924
176	0x3cc9cc7f	0.024633644
177	0x3e341c4a	0.17588916
178	0xbe349114	-0.17633468
179	0xbdbef643	-0.093243144
180	0xbd9240ff	-0.07141303
181	0xbe83879e	-0.25689405
182	0x3e6aa5f4	0.22914869
183	0xbe23ed62	-0.16008523
184	0xbbb2f06b	-0.005460789
185	0x3da5e075	0.080994524
186	0x3d37be18	0.044859022
187	0xbdf9d6ea	-0.12199195
188	0xbe999ca0	-0.30002308
189	0xbe902ace	-0.28157657
190	0xbd29ff93	-0.0415035
191	0x3dce140b	0.10062417
192	0xbdf1fa7f	-0.118153565
193	0xbeed7fef	-0.46386668
194	0x3d4d58ad	0.050133396
195	0xbda44036	-0.0802006
196	0x3d42ddd6	0.04757484
197	0xbeb127ee	-0.34600776
198	0x3c3d6a08	0.011560924
199	0xbda9a751	-0.08283866
200	0xbe026d34	-0.1273697
201	0xbecb5a81	-0.39717487
202	0x3d78f4ca	0.060780324
203	0x3eb59ad0	0.35469675
204	0xbdf479b7	-0.11937278
205	0xbc9ac191	-0.018891128
206	0xbd9cb947	-0.07652526
207	0x3c842846	0.016132485
208	0xbeb02e84	-0.3441049
209	0xbc7a6e52	-0.0152850915
210	0x3d7dd021	0.061966065
211	0x3cfd7f3a	0.030944455
212	0x3e2887f7	0.16458116
213	0x3d4f20e1	0.050568465
214	0xbc667f0c	-0.014068376
215	0xbc424dbc	-0.011859354
216	0x3d1ab5b6	0.03777095
217	0xbe2eccda	-0.17070332
218	0xbe10d129	-0.14142288
219	0xbc3f188f	-0.01166357
220	0x3ce66e19	0.02812867
221	0x3d8e5b18	0.069509685
222	0xbdc31722	-0.095258966
223	0xbe2949a8	-0.16532004
224	0x3d463456	0.048389755
225	0x3d833a2a	0.06407578
226	0xbe83cd6b	-0.2574266
227	0xbd325bb1	-0.043544475
228	0xbdf27bbf	-0.11840009
229	0xbedf9fa5	-0.43676487
230	0xbdecf5f3	-0.115703486
231	0x3d37ffc5	0.044921655
232	0x3b6eb7f9	0.0036425574
233	0xbd528286	-0.051394008
234	0xbf2a643a	-0.66559184
235	0xbd1208b3	-0.035652827
236	0x3e878d66	0.26475066
237	0x3dc8e6eb	0.09809669
238	0x3d39fa56	0.045404755
239	0x3d96d701	0.073652275
240	0xbe2cd1d8	-0.16876924
241	0xbdde4fc3	-0.10855057
242	0xbbd44b33	-0.006478691
243	0xbda30ffc	-0.07962033
244	0x3cc91406	0.02454568
245	0xbdce0708	-0.10059935
246	0x3d3476fe	0.044058792
247	0xbd33679b	-0.043799978
248	0xbdb1ede3	-0.086879514
249	0xbd9d5636	-0.07682459
250	0xbe2c1e4c	-0.16808432
251	0xbf438d08	-0.7638707
252	0x3f09b287	0.53788036
253	0xbe60dfd8	-0.2196039
254	0xbc012380	-0.007881999
255	0xbe0e2f0e	-0.13885137

fc2.bias f4 [128]
0	0xbdc78d76	-0.097437784
1	0x3bb41fb9	0.0054969457
2	0x3e2b4010	0.16723657
3	0x3da8498f	0.08217155
4	0x3d3d6f0a	0.046248473
5	0x3caebb5d	0.021329576
6	0x3d283c6a	0.04107324
7	0x3e060384	0.13087279
8	0x3da718c2	0.08159019
9	0x3d0d6b76	0.03452631
10	0x3e24e356	0.16102347
11	0x3dad2ab6	0.08455412
12	0xbd719486	-0.058979534
13	0x3d1ce5ee	0.038305216
14	0x3d89b122	0.067232385
15	0x3e3906b1	0.18068959
16	0xbdcb2adc	-0.09920284
17	0x3cdb5b98	0.026777074
18	0x3dee39ae	0.11632095
19	0xbdc0ad9a	-0.09408112
20	0xbc9959bb	-0.018719545
21	0x3e113f9e	0.14184424
22	0x3e3baf16	0.18328509
23	0x3cfecf4f	0.031104712
24	0x3daa5ab2	0.0831808
25	0x3cba3132	0.022728536
26	0x3e15445e	0.14576861
27	0x3ce3301a	0.027732898
28	0xbe10e870	-0.14151168
29	0x3e3c6f3e	0.1840181
30	0xbdbcf035	-0.09225503
31	0xbca5133e	-0.020150777
32	0x3e2575e1	0.16158248
33	0xbdeb90a8	-0.115022
34	0x3ddc483a	0.107559636
35	0x3e06c852	0.13162354
36	0x3e49b12b	0.1969649
37	0x3ad109f8	0.0015948405
38	0x3dda77fd	0.10667417
39	0x3e12cc30	0.14335704
40	0xbcca9b75	-0.02473233
41	0x3dff6bf0	0.12471759
42	0x3da13662	0.07871701
43	0xbc122a3a	-0.0089212
44	0x3e015091	0.1262839
45	0x3db21819	0.086960025
46	0x3dca3729	0.09873802
47	0x3e0d4474	0.13795644
48	0x3d7b3161	0.06132639
49	0xbd131a60	-0.035913825
50	0xbd183f3d	-0.037169684
51	0x3e0669a5	0.13126238
52	0xbd7bd782	-0.06148482
53	0xbd01641f	-0.031589624
54	0x3e2c4b78	0.16825664
55	0x3e0a9c5c	0.13536209
56	0x3e0ac509	0.13551725
57	0x3db1ebdd	0.086875655
58	0x3d2c9439	0.042133544
59	0x3e4c1b52	0.19932297
60	0x3d8fb331	0.070166
61	0xbd83a357	-0.06427639
62	0xbc7f6b95	-0.015589614
63	0x3d21c5df	0.039495345
64	0x3de719eb	0.1128424
65	0x3db91e9f	0.09039044
66	0x3dd33547	0.10312896
67	0x3dcbb218	0.09946078
68	0x3db4e482	0.08832647
69	0x3d81eddf	0.063441984
70	0x3d825a20	0.06364846
71	0x3d44e03c	0.04806541
72	0x3dd42f83	0.10360625
73	0x3d8a54ec	0.06754479
74	0x3d463a27	0.048395302
75	0x3d6ce4e2	0.057835467
76	0x3de30fda	0.11087008
77	0x3dca7472	0.098854914
78	0x3e456c9a	0.1927971
79	0xbd8aaaf3	-0.06770887
80	0x3dfbb881	0.12291051
81	0x3da55ca3	0.0807431
82	0x3dca6856	0.09883182
83	0x3debf3b8	0.11521095
84	0x3df367b2	0.11885013
85	0x3d500803	0.05078889
86	0x3e50d481	0.20393564
87	0x3d082ed7	0.033247795
88	0xbddcaa53	-0.10774674
89	0x3e0c4a96	0.13700327
90	0x3d1293b0	0.035785377
91	0x3e2b00ae	0.16699478
92	0x3be7bd35	0.007072116
93	0xbcf706b4	-0.030154563
94	0x3dd8b7bb	0.10581919
95	0xbd20f31f	-0.03929436
96	0x3e4fa01c	0.2027592
97	0xbc89e288	-0.016831651
98	0x3c64321b	0.013927962
99	0xbda471f0	-0.08029544
100	0xbc1bb772	-0.009504186
101	0x3d26988f	0.040672835
102	0xbd0abd2d	-0.03387182
103	0xbd1a3d7f	-0.037656303
104	0xbdb72506	-0.089426085
105	0x3e146e87	0.14495288
106	0x3ddcb9d4	0.107776314
107	0x3da06840	0.07832384
108	0x3e056ced	0.13029833
109	0x3cc8b99b	0.024502566
110	0x3e10dccf	0.14146732
111	0x3e272acf	0.16324924
112	0x3e1895f2	0.1490095
113	0x3e017a3b	0.12644283
114	0x3dbfde8b	0.093686186
115	0xbd8b5bb0	-0.068045974
116	0xbb12c66a	-0.0022396096
117	0x3e097032	0.13421705
118	0xbd3b76e0	-0.045767665
119	0xbc0621ed	-0.0081867995
120	0xbc84618c	-0.016159795
121	0x3dd954a3	0.10611846
122	0x3d97597f	0.07390117
123	0x3d993766	0.074812695
124	0x3c39a08f	0.011329784
125	0x3d99701d	0.07492087
126	0x3d8255f9	0.06364054
127	0xbde30729	-0.1108535

fc3.weight f4 [3, 128]
0	0x3c8f300b	0.017478963
1	0x3c99912d	0.018745983
2	0xbaf9c6f5	-0.0019056486
3	0xbc825f5d	-0.015914613
4	0x3b74bb8a	0.0037343227
5	0xbd1c910a	-0.038224258
6	0x3e0da0db	0.13830893
7	0xbb789d50	-0.0037935562
8	0xbca417c6	-0.020030867
9	0xbbc5c697	-0.0060356366
10	0x3b14cf6a	0.0022706636
11	0x3be3d4e9	0.006952871
12	0xbd4c06e5	-0.049811263
13	0x3e19da69	0.15024723
14	0x3c2b4808	0.010454185
15	0x3bb77544	0.005598696
16	0xbbbf7998	-0.0058433525
17	0x3d915b1e	0.07097457
18	0xba539e6d	-0.00080726185
19	0xbd8ea141	-0.069643505
20	0xbd40e3dc	-0.047092304
21	0x39ddaeae	0.0004228255
22	0x3c05a8c1	0.00815791
23	0x3c5d29d3	0.013498741
24	0xbd343b8a	-0.044002093
25	0xbdd9335f	-0.106055014
26	0xbb64ce19	-0.0034912883
27	0xbb80fa2c	-0.003936073
28	0xbd466e5a	-0.048445083
29	0xbd23f14d	-0.040025044
30	0xbd26e890	-0.040749133
31	0xbd6ddfba	-0.05807469
32	0xbbde0896	-0.006775926
33	0xbc8c2dea	-0.017111737
34	0xbacf257a	-0.0015804016
35	0xbb0cdd44	-0.002149419
36	0xbc29270c	-0.010324251
37	0x3d972f02	0.07382013
38	0xbca84ed1	-0.020545395
39	0xba2072d9	-0.0006120629
40	0x3c602fe9	0.013683298
41	0xbbbac746	-0.005700025
42	0x3c1d0230	0.009583041
43	0xbd173d6d	-0.036923815
44	0x3bae6591	0.0053221663
45	0x3c8e38bf	0.017361043
46	0x3c512336	0.012764743
47	0xbb04e78a	-0.002027961
48	0x3d948e0f	0.07253658
49	0x3ba84967	0.0051357034
50	0xbd3f0503	-0.04663564
51	0xbc174cd1	-0.009234623
52	0xbc10ed43	-0.00884563
53	0xbb5b6fc1	-0.0033483359
54	0xbb4ae67d	-0.0030960136
55	0xbc24e0b6	-0.010063341
56	0xbbcd401a	-0.006263745
57	0x3cb311e5	0.021859119
58	0xbc733276	-0.014843574
59	0x3b0e01e0	0.0021668598
60	0x3ca8f181	0.02062297
61	0xbd86e4ce	-0.0658661
62	0x3c5adbe4	0.01335809
63	0x3d801fac	0.06256041
64	0xbb823293	-0.003973314
65	0x3cc82921	0.024433674
66	0x3b598113	0.0033188506
67	0xbc946814	-0.018116035
68	0x3c05a204	0.008156303
69	0x3d805d60	0.0626781
70	0xbca5f5cc	-0.020258807
71	0x3c541929	0.012945452
72	0xbb8b0e2e	-0.0042436337
73	0xbb4ee0ea	-0.0031567165
74	0xbc995546	-0.01871742
75	0x3d196eab	0.037459057
76	0x3aa2aaf7	0.0012410571
77	0xbcaeff0a	-0.021361846
78	0x3c833c09	0.016019838
79	0xbd2d3b57	-0.04229292
80	0xbb30fef8	-0.0027007442
81	0x3bf42086	0.007450166
82	0x3c3179a0	0.01083222
83	0x3a8185bd	0.0009881776
84	0x3c6d8407	0.01449681
85	0x3d8ee5db	0.06977435
86	0x3bf5eae7	0.007504809
87	0xbda3d32a	-0.07999261
88	0xbd0ced2e	-0.03440588
89	0xbc9c96ea	-0.01911493
90	0x3cb0957f	0.02155566
91	0xb916caa2	-0.00014380601
92	0xbd49a85e	-0.049232833
93	0xbd09969d	-0.0335909
94	0xbc876caf	-0.016531317
95	0xbcd122e8	-0.02552934
96	0x3c68f974	0.0142196305
97	0xbcaf291c	-0.021381907
98	0xbdecc3a4	-0.11560753
99	0xbd628352	-0.055301018
100	0xbdf6ed4f	-0.12056982
101	0xbce3b9fe	-0.027798649
102	0xbd5a3d78	-0.053281277
103	0xbad84fe6	-0.0016503304
104	0xbd8e86a0	-0.069592714
105	0xbc9bf330	-0.01903686
106	0x3c086a61	0.008326144
107	0x3bd02cd9	0.0063530025
108	0xbc1935fd	-0.009351251
109	0xbb832216	-0.004001866
110	0x3c3df701	0.011594535
111	0xbbe5445a	-0.0069966735
112	0xbb489502	-0.0030606394
113	0x3cccf186	0.025017511
114	0x3bd8feec	0.006622186
115	0xbd99b4a1	-0.07505155
116	0x3bd4cac0	0.0064938962
117	0x3b27351e	0.0025513838
118	0xbc1691f2	-0.0091900695
119	0xbc3f82cd	-0.0116889
120	0x3d8140ed	0.06311212
121	0x3b8d59c4	0.0043136794
122	0x3c995452	0.018716965
123	0x3cd08c02	0.025457386
124	0x3d0f2136	0.03494378
125	0x3d0fc497	0.035099592
126	0x3bb96bc3	0.005658598
127	0xbd008a24	-0.03138174
128	0x3d73792b	0.059441727
129	0x3c9b0322	0.018922392
130	0xbc872bd4	-0.016500391
131	0xbc6c7493	-0.01443209
132	0x3b1f854d	0.0024340928
133	0xbba40588	-0.005005542
134	0xbcce1b57	-0.025159521
135	0x3bafad8e	0.0053612655
136	0x3d735591	0.059407774
137	0x3d254674	0.040350392
138	0x3cd5bea7	0.026091887
139	0xbc5e0f55	-0.01355346
140	0x3d96385d	0.07334969
141	0x3d01e48a	0.031712092
142	0xbdb61e2b	-0.08892473
143	0xbc1652d1	-0.009175018
144	0xbcb58128	-0.022156313
145	0xba447b5d	-0.0007495189
146	0x3b762eeb	0.0037564586
147	0x3d0da7fd	0.034584034
148	0x3d4b488e	0.04962974
149	0xbb3a2b11	-0.0028407017
150	0xbaa8835b	-0.001285653
151	0xbd55c893	-0.052193236
152	0xbc265bbf	-0.01015371
153	0xbd43ed01	-0.047833446
154	0xbb91f6af	-0.004454456
155	0xbe07e200	-0.13269806
156	0xbd1719a3	-0.036889683
157	0x394c83af	0.00019504012
158	0x3d62fc48	0.055416375
159	0x3e67e482	0.22645763
160	0x3ba659fe	0.005076646
161	0x3d8489a4	0.06471565
162	0x3b62d02e	0.0034608948
163	0x3ccf755d	0.025324518
164	0xbc781056	-0.015140614
165	0x3cc6fccf	0.02429047
166	0x3c08727a	0.008328075
167	0xbbaf1c61	-0.005343959
168	0xbd44c27f	-0.04803705
169	0x3ac2806b	0.0014839297
170	0xbc8d0f9f	-0.017219363
171	0x3d3c16f7	0.04592034
172	0x3ba12f17	0.0049189436
173	0xbc0c99ab	-0.008581559
174	0xbbf66105	-0.00751889
175	0x3bc0e733	0.005886936
176	0x3cb80841	0.022464873
177	0xbc652606	-0.013986116
178	0xbcf05d31	-0.029341312
179	0xbbae7b7f	-0.0053247805
180	0x3c7e0d9d	0.015506175
181	0xbb517a49	-0.0031963757
182	0x3bf36caf	0.0074287276
183	0x3c96b22d	0.018395508
184	0x3ae3db15	0.0017384017
185	0xbc9e1f1d	-0.019301945
186	0xbd2fff27	-0.04296794
187	0xbc138321	-0.009003432
188	0xbd54dbd8	-0.05196747
189	0xbacce7dc	-0.0015633064
190	0xbd4ed075	-0.05049177
191	0xbd814795	-0.06312481
192	0xbb1910fb	-0.0023356068
193	0xbb8ca5fd	-0.0042922483
194	0x3b8f7a75	0.0043786117
195	0x3bad89fa	0.005295989
196	0x3d443c9b	0.04790936
197	0x3d6db1d5	0.058030922
198	0x3dd6d84c	0.10490474
199	0x3d9355a1	0.07194067
200	0x3b472670	0.00303879
201	0x3bd43b38	0.006476786
202	0xbd7381db	-0.05945001
203	0xbb531539	-0.0032208695
204	0xbca13c33	-0.019682026
205	0x3cbbb62d	0.022914017
206	0x399166c7	0.0002773313
207	0x3b56026d	0.0032655254
208	0xbc156e28	-0.009120502
209	0x3ba13f27	0.0049208584
210	0x3cd3dca4	0.025862046
211	0xbbd87436	-0.0066056503
212	0x3cd4762e	0.025935259
213	0xbc15c500	-0.009141207
214	0x3a50c6bf	0.0007964186
215	0x3d7e6ae8	0.062113672
216	0x3d00e934	0.0314724
217	0xbbffc36b	-0.007805278
218	0x3cd80906	0.02637149
219	0xbb49d1f3	-0.0030795306
220	0xbd50acc4	-0.050946012
221	0x3d17ca1f	0.037057992
222	0xbc8b7f4d	-0.017028475
223	0xbcf79502	-0.03022242
224	0x3ab14e5b	0.001352738
225	0x3cc279ce	0.023739722
226	0x3c34aa07	0.011026866
227	0x3d80842f	0.06275212
228	0x3dff5c75	0.12468807
229	0xbd6c9a93	-0.0577646
230	0xbcaa2377	-0.020768864
231	0xbd57a82b	-0.05265061
232	0x3c7e31bc	0.015514787
233	0xbbcf8f2e	-0.006334207
234	0x3c507072	0.012722122
235	0xbc165a0f	-0.009176745
236	0x3c31d90c	0.010854971
237	0xbd7e894f	-0.062142666
238	0x3c030506	0.007996803
239	0xbb1f531f	-0.0024311019
240	0x3c6e2980	0.014536262
241	0x3c54d2df	0.012989729
242	0x3c0d8e14	0.008639831
243	0x3d45f593	0.0483299
244	0xba294811	-0.0006457577
245	0xbc38e116	-0.011284133
246	0xbd03835a	-0.03210769
247	0x3d06d82e	0.03292101
248	0xbb44cf70	-0.003003087
249	0x3c33428b	0.010941158
250	0xbcdd1fff	-0.026992796
251	0x3d987176	0.07443516
252	0x3cee5424	0.029092856
253	0xbd0811ec	-0.033220217
254	0xbd1c4940	-0.038155794
255	0xbce6201f	-0.028091488

fc3.bias f4 [3]
0	0x3f15b502	0.5847932
1	0xbb0e5ccb	-0.002172279
2	0x3c6c895a	0.014437044
